data/w1.npy (npy, 62848 bytes, 1 tensors)

array f8 [10, 784]
0	0xbfd48cd7bb402816	-0.3210963562602286
1	0x3fa993539ddb93f0	0.049952137965909915
2	0xbfcb8882fc93edb8	-0.21510350544836654
3	0xbfccc77f1bb6e9c4	-0.22483815053221978
4	0xbfcee6702957f2f4	-0.24140741366127083
5	0xbfd824ea4636fd0c	-0.37725312096513686
6	0x3fd27ee803d7db5a	0.2889957463771019
7	0xbfd51647379c6b0e	-0.32948475294840385
8	0x3fc5a2c819924148	0.16903020142172864
9	0xbfd7ed6727e4b39a	-0.37386492629848933
10	0x3faa49c0fc2f9b80	0.05134394720499014
11	0xbfdc7be4bef064ac	-0.4450618614806199
12	0xbf9f85903a844967	-0.03078294140966289
13	0xbfd0db7bfac453d2	-0.26339625824885815
14	0x3fd6158d1e4cb6cc	0.34506538351966465
15	0xbfd8394461c07c3a	-0.37849530740817594
16	0xbfd0e5a3405656d4	-0.2640159729283884
17	0x3fd06bb08285df90	0.25657284494763477
18	0x3fb9b88e7b577b68	0.10047235976479174
19	0xbfa6751c0ca41ad0	-0.04386222509679316
20	0xbfc6e26b638c153c	-0.17878477440550877
21	0x3fd203e4e0e42056	0.28148767435096056
22	0x3fb7720bd924a1f8	0.09158395816178444
23	0x3fa12be1f584d460	0.03353792306953873
24	0x3f72c1cc2720c780	0.004579350921675274
25	0xbfde8065e2b9129e	-0.47658679142868177
26	0xbf9727b02c73e980	-0.022612335885221935
27	0xbfd843eabdc2bb1e	-0.37914532214465335
28	0x3fa299b017082ef0	0.03632879525329524
29	0xbfdcd50ff8ff9068	-0.45050429645767176
30	0x3fb702f12099e440	0.08988863988806006
31	0x3fc0abc89f5bb900	0.13024242192427238
32	0x3fddb86fd2c28f39	0.46438212949782415
33	0xbfcab1830ba4f303	-0.20854223316737128
34	0xbfddfbcb81755d18	-0.4684933437578862
35	0xbfd54d74cea55309	-0.33285255604032266
36	0x3fd93bc8b35a31bf	0.3942739249694362
37	0x3fcc93fa710911ac	0.22326593894298463
38	0xbfb21354348873d5	-0.0706074360136449
39	0xbfd5d72a6b7f0405	-0.3412576722876682
40	0x3fa2c4f3a26e76c3	0.03665887220198052
41	0x3fc9ed31326405fb	0.2025510307358188
42	0x3fdaa3578187582f	0.41621959351812426
43	0xbfdba56da6d8e024	-0.4319719437949081
44	0x3fc3c9f7b04659a5	0.15460105998199683
45	0xbfc3d761051da06f	-0.1550103449801585
46	0x3fc5451157c1b27c	0.16617028031341252
47	0x3fc84254146259ed	0.18952418322869793
48	0xbfd7d31a6a6dbfbb	-0.3722597159712639
49	0xbfd4764ba49bb255	-0.3197201831342558
50	0xbfde7fa1e8cf4abc	-0.4765400670559463
51	0x3fa9dfa9b4372830	0.05053453755279269
52	0xbfd621a14b323536	-0.34580261557933356
53	0xbfc1752e200dbd7c	-0.13638855519409876
54	0xbfd677a2461a46b4	-0.3510518726917369
55	0x3fd95769e5e798c0	0.39596030665996906
56	0xbfc7bc5e8b780b08	-0.18543607530599382
57	0xbfd3a26484a019f6	-0.30678666068743554
58	0xbfd2ae0b54a70c67	-0.2918728186306851
59	0xbfbad3a5deba3935	-0.10479199111634759
60	0x3f84b124b93bd4f1	0.010103499319920025
61	0xbfde14afd1826f2c	-0.47001262149727796
62	0x3fd935ad1464d61e	0.39390112868872673
63	0xbfdcc586ccdf0943	-0.4495560646720557
64	0x3fd1487057bc94e5	0.2700463158419793
65	0xbfc67e3adf7f60b4	-0.1757272330567098
66	0xbfdc17373491bbb5	-0.43891697057454887
67	0xbfca5085f7239d90	-0.2055823761686324
68	0xbfda8d75ed5d3023	-0.41488407306747116
69	0xbfce11eb287d543f	-0.2349218318655932
70	0xbfc99f6176071013	-0.20017641318384047
71	0xbf8ed38dcf8542cb	-0.01505194463303052
72	0xbfd1498b9d5ae09b	-0.27011385313699926
73	0xbfcd0d8dbd2e3063	-0.22697612511945228
74	0x3fa7582ee67a2259	0.045594659456644045
75	0xbfbf6cad88778886	-0.12275204259597858
76	0x3fb5dfe94b468ffc	0.0854478653696446
77	0x3fd772201fa6e7f6	0.3663406666852319
78	0xbfc52931923c46e0	-0.1653196300545039
79	0xbfdb021b82775892	-0.4220036291202486
80	0xbfc0ec2dcff5a854	-0.1322076096942647
81	0xbfbe6f18846fdd23	-0.11888268693279662
82	0xbfd31d827e15b016	-0.2986761313720775
83	0x3fcc3ceeefde97d8	0.22060953819635531
84	0x3fbc0e189057f2e0	0.1095900871659512
85	0xbfd8e4c6be522826	-0.3889633997538361
86	0x3fd1e9b16e220132	0.27988849406394245
87	0xbfcd40808e8d2295	-0.22853095016968852
88	0xbfce9dbbb06dfa97	-0.23918863405920796
89	0x3f9bc6a3422f7d85	0.027124930300372014
90	0x3fdbfbeaa4afbe94	0.43725076754251657
91	0xbfd2958fc54f1bc7	-0.2903785158964038
92	0xbfda048e4d5ea693	-0.40652806811940784
93	0x3fda16c541bf2f33	0.40763980312907505
94	0x3fd1508e022bb2b4	0.2705416699598502
95	0x3fd5ca2df0a9b00c	0.3404650545332977
96	0x3fd2abeea7179e18	0.2917439109573663
97	0x3fd9e4083701f06f	0.40454297420342916
98	0xbfd6f6e92175b83a	-0.35882023112833716
99	0x3fa50176a9ab93b4	0.04102679082078656
100	0xbfb493b2e6f8d882	-0.08037870539632944
101	0x3fd7a7ef4275ac6f	0.36962491502953915
102	0x3fb6e422c2e18c70	0.08941857583845247
103	0x3fd3b7cf2abcc2b6	0.3080938260418792
104	0xbfdb457401b262af	-0.42611408391671096
105	0x3fd7a5321ea40430	0.36945775024657035
106	0xbfdb792340a00a9b	-0.42926865874339065
107	0xbfc8aaf964e56f71	-0.1927177183778173
108	0x3f9f795b5ea572fa	0.030736377383948167
109	0xbfd3203764ccb6ff	-0.29884133189885626
110	0x3fbf601d05332cc0	0.12256032349539492
111	0xbfbee6439a7d7878	-0.1207010509656089
112	0xbfd1dd861bc0a45a	-0.27914574346738663
113	0xbfd792e358d8199a	-0.36834033657250986
114	0x3fd8512da1b7c614	0.37995472710380906
115	0xbfb519882046964a	-0.08242083347303111
116	0x3fcb2be5ed0a1c01	0.2122771651667961
117	0x3fdeb58388042119	0.4798287227900047
118	0xbfd3e4bdb2e42d77	-0.31083624334197374
119	0xbfc5fadf014c996f	-0.17171847880781452
120	0xbfcb6b75976701e1	-0.21421689884847608
121	0x3fdc63bd298ccfe3	0.44358758027669704
122	0xbfd1227585b85f48	-0.26772821482289944
123	0xbfc073ae5533480d	-0.12853030357524667
124	0x3fcb5aa0a9e38702	0.21370323462820556
125	0xbfd52e57bede2160	-0.3309535373632766
126	0x3fc33f38aee3faa7	0.15036686458184542
127	0x3fe1b6595876fc98	0.5535094001605954
128	0xbfc37823c5546c8d	-0.1521038735889743
129	0xbfbf61a15195e944	-0.12258346788249691
130	0x3fd4ec3f9cd0c5fa	0.32691946329131805
131	0x3fb20ce21d851fb5	0.07050908299163335
132	0xbfd1ff1a15200253	-0.28119518340102906
133	0x3f7340dd0403cbcc	0.004700530378829403
134	0x3fa40323b7f643c0	0.03908645268086941
135	0xbfce3be7e610e37e	-0.23620318158807757
136	0x3fd8c0e5d1c27331	0.3867735432084372
137	0xbfc5b629e7224ceb	-0.16962169442977112
138	0xbfd9f79cb0fa8f37	-0.4057380417163929
139	0x3fc95a8604db76d8	0.19807505833789807
140	0x3fdd7d39a9143f30	0.4607681418574314
141	0x3fda88bb82d9d6bc	0.41459548738871965
142	0x3fd1c3489115dcd6	0.27754415672775445
143	0xbfd359e6ca39e795	-0.3023621535172592
144	0xbfc9a23494bb77f1	-0.20026261579818042
145	0x3fdbdd40cbcc59b7	0.43537921812221775
146	0x3fd3fd3b05d8218d	0.3123309666703101
147	0x3fa590e8a2977298	0.04212119087944649
148	0xbf73620bd6799e7e	-0.0047321760572242005
149	0xbfbee85ca847aa6c	-0.12073306187054705
150	0xbfc5b4fea6fd6380	-0.1695860209827309
151	0x3fe32cda658bb378	0.5992252333941073
152	0xbfd0f943b8e3ac99	-0.2652139001426775
153	0x3fe4f69acf1278e9	0.6551031154993129
154	0x3fdda6a76ce69b16	0.46329675326198705
155	0x3f9083cad5f9da9e	0.016127747831400023
156	0x3fdb0b62b0ed0726	0.42256991651457765
157	0xbfd399b5094da699	-0.3062565413334624
158	0x3f9a9f43f3f72244	0.025998174443687697
159	0xbfd7ba0e700358ba	-0.3707309812429106
160	0x3fd02d9bd78026d1	0.2527837376115772
161	0xbfc825e71a0fefda	-0.1886566998726938
162	0x3fd62b999313e58d	0.3464111267381547
163	0xbfdd6a8ea9185105	-0.4596287394827104
164	0xbfd87216b8800827	-0.3819634248503711
165	0xbfd4839adbb46a4b	-0.3205325265459222
166	0xbfaa74a49b83d964	-0.05167116545082953
167	0xbfdf796425161c55	-0.4917841303035336
168	0x3fc922391d47b65c	0.19635690622037572
169	0xbfd40d4e6c791cae	-0.313312154703861
170	0xbfdadac6e50d3ff5	-0.4196030842622343
171	0xbfd4fa0f28222d19	-0.32776240271842166
172	0x3fb17515913a7fb8	0.06819281383150055
173	0xbfdda8f3fc1ff97d	-0.46343707677433327
174	0xbfb5b6100d75ebc7	-0.0848093064177383
175	0x3fd66ec05ca58b8c	0.35050972983861395
176	0x3fc6ef67d97de942	0.17918108100622915
177	0xbfcfc9528a6f8861	-0.24833137282900267
178	0x3fe12b73c1b85174	0.5365542205422984
179	0x3fd27dd2e2619668	0.28892967326678454
180	0x3fb26559d52ad565	0.07185899214058152
181	0x3fe1b411f1c5ee94	0.5532312128193149
182	0xbfbd22a0d7b2c206	-0.11380963579245681
183	0x3fe3535f9ffc66dd	0.6039274334645729
184	0x3fe096bba77c8b63	0.5184000273915043
185	0x3fe32d63ec1ff827	0.5992908107580249
186	0x3fda58879acd7e1f	0.41165342442943315
187	0x3fe1bd136d4fa9d2	0.5543305525764544
188	0x3fbac1ded66f6484	0.1045207284472714
189	0x3fc8a1b0238df786	0.19243432746946726
190	0x3fd739152254624a	0.36285904266836566
191	0xbfc305c0c7e193cb	-0.14861306915113767
192	0xbfd0154ad70dbaf7	-0.2512995815404077
193	0x3f9e81aa4ebb0ce0	0.029791508727396443
194	0xbfc8c67e502d99ae	-0.19355753817508287
195	0xbfd7d3326f74b02e	-0.37226544269902007
196	0x3fd2732a65c5bc70	0.288279151332012
197	0x3fb50ccf862f5117	0.0822267248725591
198	0xbfd4a02d04cdbc84	-0.3222763583098145
199	0x3fb1ab3af65d476f	0.0690190173602596
200	0x3fc18a067695a041	0.1370246962571873
201	0x3fd2298588ccbc8b	0.2837842784819677
202	0x3f9692204f0fdbdd	0.022041802239950548
203	0xbfd3f3b797abbd6d	-0.31175031482322063
204	0xbfd04b2edaf0e34b	-0.2545888078780549
205	0xbfd2a872a779ced8	-0.2915312419420224
206	0xbfa6e7d5a9a8cb9d	-0.04473750778233596
207	0x3fa742619310bc44	0.0454283229849968
208	0x3fd86680c9bc09e1	0.3812562913955429
209	0x3fe01f9fc937efdb	0.5038603715943241
210	0x3fd02ef2ef4dfa6c	0.252865537353421
211	0x3fc8436cd18989e0	0.18955764991103674
212	0xbfc6b4b399e5e8df	-0.17738957418970977
213	0x3fe2c495d773062c	0.5864972312921899
214	0x3fd75829dddb99da	0.3647560755329359
215	0xbfc44ff8fcd1dc50	-0.1586905703040622
216	0x3fd602bcdf0f0b05	0.3439171007450315
217	0xbfa16da06b058e2a	-0.03403950983445399
218	0x3fd58ffac987e7fa	0.3369128196787866
219	0xbfb08883d611a499	-0.0645830533627695
220	0x3fc14952e72c2825	0.1350501660129463
221	0x3fd8df51513e0e82	0.3886302274115466
222	0xbfc635fab022712b	-0.173522315982049
223	0x3fa36d93f6ed7cce	0.03794538869146323
224	0xbfd2feb85938b97d	-0.2967968818001266
225	0xbfddb2df387aa65b	-0.4640424777559013
226	0xbfdbb9e1b2a7e0c6	-0.4332203144727028
227	0x3fa145dce223d15c	0.03373613605973233
228	0x3fdcc3b89dc4f576	0.44944587142148096
229	0xbfd2343d74885df0	-0.2844384801878439
230	0xbfd1ff6d35ab5e09	-0.2812150024523992
231	0xbfdc8503ea8571b7	-0.44561860945193693
232	0x3fd794806143b162	0.3684388112876801
233	0x3fc0d97512a6300b	0.13163627062419922
234	0xbfc2006890869da9	-0.14063746506620348
235	0x3fe42f43770b68dd	0.6307694745148883
236	0xbfc7dd9dfebc0eed	-0.1864507192441275
237	0xbfc691f38286b565	-0.17632907746648666
238	0x3fdf9809e95e5cef	0.4936547068586625
239	0x3fe246ff106e2eac	0.571166545954346
240	0x3fe5017772526edd	0.6564290268756526
241	0x3fe37188f0d6999b	0.6076092437622721
242	0x3fdf5e67b7c38e6b	0.49013703294460836
243	0x3f92fbd4525b2311	0.018538777853595315
244	0x3faed747731d2aee	0.06023619919013422
245	0x3fc91abb0da270fd	0.19612825551747184
246	0x3fd04ea6e7b6eb81	0.25480053547260445
247	0x3fd5c606ca5acd6a	0.3402115799064719
248	0xbfc9a8ce2ada9a24	-0.20046403019405645
249	0x3fc68768cd80f2f2	0.17600736650810905
250	0x3fd7a7960fe190e5	0.36960364867105816
251	0x3fcdabeeb65ae84d	0.23180946258600202
252	0x3f30e048023f72b4	0.00025750883128043277
253	0xbfcd58cf4d185c13	-0.2292727590981661
254	0x3fb374b05b5df84c	0.07599928122178418
255	0x3fcc73b136982397	0.22228064695107427
