data/w1.npy (npy, 62848 bytes, 1 tensors)

array f8 [10, 784]
00000000: 60fd 7b50 0015 c33f f412 cf27 565a cd3f
00000010: 268f 9f5e b77b ddbf aa18 09c9 25da d23f
00000020: ac79 f158 da44 d93f f01d e582 6c47 b2bf
00000030: 9898 d09c 1d90 b2bf 007f 93e5 9d88 913f
00000040: 18be d8c4 3d25 cbbf 407b 014e 42dd 903f
00000050: 40e7 40c6 d440 bbbf 00e0 5154 b2d9 b4bf
00000060: 4547 aa26 ee5a b73f cf39 b639 e4b2 c63f
00000070: 8af6 ac01 913f dfbf 772e 5dfa 6cdb dbbf
00000080: 6e82 8193 11dc d53f c221 0fc7 7eba df3f
00000090: 2490 999a f614 d6bf a06a 2f09 fa4a a23f
000000a0: a452 2fb8 ccd5 d0bf 287d 9fa8 0b05 bc3f
000000b0: c438 33b8 8965 c13f 3075 d463 a7bd a03f
000000c0: 58ea 1162 efd2 de3f 50d9 da6b f027 bc3f
000000d0: 3022 236a aeb9 c83f b0eb f7b0 ef06 adbf
000000e0: 8a36 5b6d 89ef d8bf d057 fd77 e49a d1bf
000000f0: 6004 6bea 9c90 9bbf 8826 b9d8 8e9c d73f
00000100: 0ff0 a95f e514 dc3f b955 6a96 e967 d63f
00000110: 425f 554c 9965 dabf cf4b b395 8a90 dbbf
00000120: 3045 0e0f 8b16 923f 4c13 c846 9138 abbf
00000130: fde0 1b30 08a7 da3f edb3 12e0 99d4 ce3f
00000140: 9760 a775 fa4d d8bf d080 4bdc e788 c73f
00000150: 86ca f728 b0a9 b1bf 7993 ba5b d854 d53f
00000160: 2401 4dcc 30c8 dc3f 567d 88b3 0c7e c63f
00000170: 3b63 69d4 a532 ddbf 2262 a1a6 6f3d de3f
00000180: d0b1 e58a 8129 cf3f 9df4 411a cf39 cd3f
00000190: bf73 568a a922 c9bf 56a4 e0f4 2606 ddbf
000001a0: 40ce 2bab ae49 bc3f 541a b8c9 d8e1 debf
000001b0: 8cb8 6ab7 8552 c53f 00c0 52fd 6cff 55bf
000001c0: a00b c8df 7d66 9d3f 6830 836c d321 df3f
000001d0: 850e 13fe 34e4 d9bf 3529 f145 490c b9bf
000001e0: de5c f4d6 91eb 97bf fddb 8ce1 0f5d d2bf
000001f0: 03f0 f013 84fd aabf 9ea4 1907 c0ff d23f
00000200: 19d2 a80c 3b9d d23f cf9f 1d53 6031 abbf
00000210: 4787 9c50 a31d e0bf cbd0 d5a1 c1f1 d2bf
00000220: b4c7 9ac9 0f1a d4bf 7f1f 8be3 11b6 dfbf
00000230: 75f3 d672 a7f7 d6bf a8b7 3f5c fd91 d23f
00000240: 3145 7860 20da d73f 3b89 30ed 22d2 c3bf
00000250: 48b4 e123 616b c03f 17e7 bd1b 76fe d6bf
00000260: 484b 9298 514a db3f 233a 7d71 275d cfbf
00000270: 93d2 860d 4905 c53f 10cc d5e9 6b5f b8bf
00000280: 4a68 01a1 8784 df3f 1f09 e7db 5ece dabf
00000290: f26e 2d16 5673 d53f aa7a ea0e 25bf d63f
000002a0: 08bb e99c 0770 c2bf b6da 5222 9840 df3f
000002b0: e89e 2b86 7143 cdbf ceab 1134 c82b d5bf
000002c0: 2f73 5a6f 2a24 df3f d816 b37e 7f73 b83f
000002d0: f0d6 2382 674b d53f 6b43 9c16 7d88 c03f
000002e0: b368 7d0d 5130 c73f 6880 0032 fa71 d03f
000002f0: 485d 9a30 0d58 b13f 29e4 d812 73cb d33f
00000300: 9e91 f484 5c40 c2bf 25c6 422d aa45 b93f
00000310: ab7e 692a 3289 cdbf e89c 329c 83a3 b23f
00000320: 05c7 0470 d949 783f 46ff bf81 2b58 a3bf
00000330: 991e e0a4 c99c cb3f 2d6a d103 08ee c93f
00000340: 1dfe 0008 1042 c1bf aee3 7817 a5a2 c5bf
00000350: 1af7 9c63 de0b ca3f b1ac 5ad2 1c96 b5bf
00000360: 822f bee7 9e72 b4bf 6f31 8e70 2ae2 dcbf
00000370: d246 6dde 3ff7 b9bf 00a2 7fa5 bcc7 dc3f
00000380: bc20 e292 4081 dbbf ec5f 0049 2e0e c8bf
00000390: b927 50d2 22e8 b1bf 6e09 a8a9 1b5e 9b3f
000003a0: 07ec 2365 eced c9bf 36c2 3309 8d2a 9a3f
000003b0: c1b5 b4e9 0acf d13f 3d14 fef8 9663 d53f
000003c0: b374 35f3 d5ce c6bf 2229 077b 220b e0bf
000003d0: 7c5c a864 4b2f c13f 9d9a 510d 9fd6 903f
000003e0: 2101 57d7 5248 d43f c4c9 a757 5258 d3bf
000003f0: 2817 9504 9602 d13f 7935 b15e 7a28 e6bf
00000400: 7904 121d f032 9b3f d78c 7e54 85b8 ccbf
00000410: 74ef f36b 186f d6bf 94f4 96dc fac2 e1bf
00000420: 1445 500a 79b7 c53f 8c71 840c 16ac d03f
00000430: 2fcf 9aae c1c3 d33f 048b e7c8 89fc c3bf
00000440: 6d69 6c2e 6db8 be3f b73e 237d 0937 d3bf
00000450: ad9a dd4c aa9a d0bf aedd 2cae 35ab da3f
00000460: 08e8 5a74 7bf4 cf3f 8af8 d333 71c3 d73f
00000470: b46a 0566 1d37 dd3f c06a 2eec 1e9e b8bf
00000480: 09e1 c454 9e50 d53f 2dc2 b82e ec91 db3f
00000490: 52cd 3675 46fa c53f d8e2 d102 365a 993f
000004a0: c08a a76a 660f d5bf bcd7 7977 8086 d1bf
000004b0: 752b 94fb 3e14 c0bf 630f a6a8 1911 d63f
000004c0: 924d fb24 2f91 e03f b6ee 8812 7b63 acbf
000004d0: 647a a521 a091 d63f 589f 4d01 ffb6 d23f
000004e0: a5ec 1434 f4f5 d03f 50ba 2b3b 2092 cdbf
000004f0: 419a c0ef 8002 c2bf aaa1 d6b2 e633 d6bf
00000500: 98c9 3d1b 0a2c dcbf aef9 98d4 f6d3 ae3f
00000510: 954b 85b3 4845 c5bf c71b 0a51 bdee c3bf
00000520: 6495 9bf9 c854 d3bf 4b25 ce73 7a14 d0bf
00000530: 879c 069a f128 963f e699 c2ed 65f6 b5bf
00000540: c0c6 5ac9 04ec d0bf f783 38b3 7d59 c2bf
00000550: 3571 ed1f 3c1a cb3f 5cde 542f 7f6d d33f
00000560: eca8 f0e1 6a11 d53f 189f b61a 0f93 ccbf
00000570: 49de 581d a733 d2bf a5c3 b609 b9e6 c83f
00000580: 5b94 14df 5762 c63f 55d8 b7d4 6b86 dd3f
00000590: 1b0b a5a4 5428 96bf 52dc 97e2 feed d3bf
000005a0: fc2f 2758 69fb ce3f 43e3 6902 62e2 b1bf
000005b0: ba36 bd09 957a abbf d434 1d52 b1f8 cd3f
000005c0: c491 c9c9 8dce d23f b466 9059 2669 de3f
000005d0: 0fbc bda3 457c c63f 941d 710e 4205 b1bf
000005e0: 005c 115d d6d5 a83f 30bf 2c19 9694 d1bf
000005f0: c392 bfff 5c15 cd3f 7db8 3e7e 5a4e d0bf
00000600: 5681 bdb5 0e13 ba3f ef58 6cfe 8ae0 c03f
00000610: 7d27 2fab 8e0e da3f b70b 3751 cc9a a33f
00000620: 4851 2b65 21c8 bc3f 0be4 1020 f3a7 d8bf
00000630: 6743 5d7a c32a ab3f a0d6 124c 39e7 dabf
00000640: c010 c622 6751 e03f 429a d560 aae9 d03f
00000650: 4ee0 b438 5842 d23f d9d8 052c 2043 bdbf
00000660: 7708 d0b9 4d30 a6bf 9309 a1e9 ce8e 75bf
00000670: 7acf 402e 7f91 e03f 7278 a11f 9bd1 d23f
00000680: 42c7 da2d 847c dd3f ef3a 4cd4 c899 e13f
00000690: 6122 6fc3 c608 bd3f 3b32 1081 7d0e ee3f
000006a0: 8582 0a54 69c8 c53f 8198 d005 a643 a23f
000006b0: 5a31 7bdd 7cb1 b3bf 4ad3 2b35 2489 ca3f
000006c0: 1dc0 6ceb 704e c7bf 8a1a ba69 0bf8 d53f
000006d0: 36c6 4ab7 5979 bd3f 8250 9c72 8b30 debf
000006e0: 4716 0f7b b677 ad3f a7b8 70c9 2084 c6bf
000006f0: 880c 882b a97d d53f cbfb 0cad 934a d23f
00000700: 229f 5946 f8fe debf 4d33 666f 78e6 643f
00000710: 482c 9fa9 5c2d e03f 0841 34c6 c34b e03f
00000720: fbe0 4688 fc26 bc3f 1705 df64 c523 d33f
00000730: 1892 4e94 0103 d03f 7f09 4ccd e76b c63f
00000740: cd0d c8a6 3f8f b33f 156b af87 a602 d1bf
00000750: b727 9154 14ce c23f 0d9e 2680 ea90 abbf
00000760: 56d8 9141 9962 8e3f c7f9 0ffe 9d9b a7bf
00000770: a849 a4ae f3ea cc3f dd76 8e00 cb4a d33f
00000780: bd36 bc47 4dc8 bf3f f3fb 7c30 3566 d23f
00000790: 3b46 961b c399 e03f f7eb ac84 5e8b af3f
000007a0: 3897 d086 0977 dd3f a18c 310b c1c8 9fbf
000007b0: b5f7 3d25 8805 bebf b42c b8b3 f5cf d8bf
000007c0: e3a3 241d 637e d63f a21d 8128 1160 a5bf
000007d0: be51 9169 cc5d d5bf 34f2 9bad f876 d03f
000007e0: f321 dab4 8442 bf3f 2922 20e4 2362 dcbf
000007f0: 53ce 6243 eeeb db3f be79 1177 e3da d8bf
0.14907840661906402 0.22931935256760705 -0.4606760429435205 0.29456467277885656 0.39482744871011266 -0.07140234180143756 -0.07251153067099592 0.017122714173523512
-0.21207401382115232 0.016469036112876312 -0.10645799484418905 -0.08144678648557147 0.0912312359235133 0.17733433549842778 -0.4882547870982782 -0.43526768159492896
0.341556924866416 0.49575776519170855 -0.3450294980777946 0.03572827684520985 -0.26304929720689985 0.10945198885700747 0.13591119283814213 0.03269694417597646
0.48162445618769345 0.10998442300010436 0.19316654379351084 -0.05669354472407606 -0.38962016753507867 -0.27507888524757806 -0.026918842132321763 0.3689305416524822
0.4387753900734887 0.3500923127079108 -0.4124510999149501 -0.43069710368325514 0.01766412047760929 -0.05316595067055249 0.4164448232472891 0.24086306992594989
-0.3797594212496817 0.1838655305537089 -0.06899548530763341 0.3333035369672 0.4497186656117427 0.17572172895686816 -0.4562162947018355 0.4724997641801868
0.2434541633805467 0.22832669050322787 -0.19637030844469724 -0.4535004989034567 0.1104993026636345 -0.4825345964349357 0.1665808816519 -0.0013426365233435433
0.028711287292036425 0.4864395675365416 -0.40455365001637517 -0.09784372289246764 -0.023359564537796078 -0.28693005586995907 -0.05271542304441825 0.29685974782348434
0.290846598017454 -0.05311108603092373 -0.5036179136697932 -0.2960056381628077 -0.3140906781001107 -0.4954876634696958 -0.35886560644922066 0.29016050347024214
0.37268838330153914 -0.1548503549721064 0.12827696086916007 -0.3592810889164055 0.4264110555606533 -0.2450303367754297 0.16422379646759974 -0.09520601710191579
0.49246397708123324 -0.4188458583340821 0.33516456762093505 0.355416550222723 -0.14404387628334114 0.4883175215904133 -0.22862071086205238 -0.3307972439276313
0.486582382911183 0.09551236003161578 0.33272731503471586 0.12916530231498355 0.18116200598416796 0.2569566238689789 0.06774980961414656 0.3092925724081988
-0.14258915416679668 0.09871924977303388 -0.23074938841727052 0.07280752719326566 0.005929803243178493 -0.03778205832349939 0.21572228003082186 0.20257663904597348
-0.1348285712319787 -0.16902602811913198 0.20348720420764083 -0.08432178626633192 -0.07987397344385097 -0.4513040637182461 -0.10142897777884777 0.4496909729191714
-0.4297639307410568 -0.18793276371502488 -0.06994836458775823 0.02672618124962283 -0.2025733465050907 0.025552943884522082 0.27826187918511996 0.33420347514794796
-0.17818712592535277 -0.501359215058333 0.1342558137409674 0.016443715274727756 0.31691428212436007 -0.30226572570896004 0.26578283736704345 -0.6924411630113091
0.02656150033408664 -0.22438112855625178 -0.3505307249285956 -0.5550512607948286 0.1696616459235335 0.26050330374143793 0.3088230328678376 -0.15614435491360024
0.1200016249025901 -0.30023419590450423 -0.25944001680765433 0.4166998101167917 0.2496485059871818 0.37130384503678526 0.4564889427471528 -0.09616273180146617
0.3330455615828361 0.4307814079539039 0.17170029376357349 0.024758190080748615 -0.3290649453685255 -0.2738343397862726 -0.12561785968895448 0.3447937151870432
0.517722675542631 -0.055446477901992905 0.352638275964557 0.29241919638888225 0.26501183591944716 -0.23102190865707195 -0.14070140558870217 -0.3469177957981865
-0.44018795643128206 0.06021090836701447 -0.16617687955530572 -0.15572325188642663 -0.3020498693061511 -0.25124989804370007 0.021640563035955764 -0.08579098753634859
-0.2644054380753964 -0.14335604907049035 0.21173812445602783 0.30355815527170704 0.3291880804487295 -0.22323788456309823 -0.2844026362031156 0.1945411012107147
0.1748761977443419 0.46132941983467407 -0.021638224171748193 -0.3114011013817094 0.24204747013425265 -0.06986057814527862 -0.053669602812630626 0.2341519976566021
0.293857047136296 0.47516783472529345 0.17566748137639407 -0.06648648121437467 0.048506449566666276 -0.2746939893577176 0.22721445548736172 -0.25478231743443996
0.10185329377191485 0.13185250685700775 0.40713850705343885 0.03829039088625257 0.11242874832106964 -0.3852508366722424 0.0530606352682586 -0.4203627818018081
0.5099368743108457 0.26426181274874605 0.28529935395954886 -0.1143055064656865 -0.043337277347760876 -0.005263145687481335 0.5177608397848268 0.2940433319944368
0.46072487333286827 0.55002252067956 0.11341516753521709 0.9392688294188426 0.17017857173506826 0.03567236729604507 -0.07692699820763008 0.2073102244973149
-0.1820813321623981 0.34326443982028165 0.1151329109659621 -0.4717129344219374 0.05755396129783868 -0.17590722881272322 0.33579472781293207 0.2858018102596673
-0.48431212301373894 0.0025513031243406315 0.5055373490262207 0.5092486258672873 0.10996988608428986 0.2990582928724321 0.2501834820089086 0.1751680138041358
0.07640455076039317 -0.26578677416334645 0.1469140446591248 -0.05383999647466107 0.014836499513176598 -0.046109139693715266 0.22592016246251245 0.30144000105233976
0.12415011407230288 0.28748826728036575 0.5187697924431584 0.06161017770360638 0.46039045491703545 -0.031039253528785896 -0.11727190884809498 -0.3876928572723941
0.3514640602684819 -0.04174855822980851 -0.3338500052389256 0.2572614379312512 0.12210873999914167 -0.44349000242121633 0.43627506809864264 -0.38835989597091813
