data/w1.npy (npy, 62848 bytes, 1 tensors)

array f8 [10, 784]
000000 50 1f 93 55 fa 15 c2 bf 80 25 15 ab a0 55 80 3f
       -0.14129571131183605 0.007975821705843655
000010 9e 4a 1c 36 87 9b d5 3f c0 06 be 77 0e 47 a4 bf
       0.3376176861212715 -0.03960461818406946
000020 f8 39 61 b3 ba ea cb 3f ac ba f7 ba 69 76 d4 3f
       0.21810086973933074 0.3197273565155381
000030 1c 94 fc 95 82 84 da bf 5e eb 98 48 c7 bd d4 bf
       -0.41433777472622224 -0.32408315744003413
000040 ec ca b5 d1 44 8f d6 3f ac 4d 09 ff 2d e2 ce 3f
       0.35249443511490486 0.24127745583483085
000050 e0 9f 32 31 f2 dc a1 bf a6 8f 95 b7 8c fe d5 bf
       -0.034888809686264954 -0.3436614792647056
000060 ff 22 67 be ef 56 de bf d4 fe d5 15 51 f7 d5 3f
       -0.4740561828044036 0.3432200158349421
000070 f8 36 12 6c 04 a9 da bf 6c ac 05 27 94 6b db bf
       -0.41656599572966924 -0.4284410840106776
000080 4a f1 17 63 cf 5f dc bf da 07 20 28 d4 41 db 3f
       -0.44334778477766135 0.4258928672644494
000090 1c 55 a6 da dc b4 dc bf 28 99 9b ca a5 4f be 3f
       -0.44853898384583757 0.11840282627563126
0000a0 aa 26 71 fa d8 e2 d2 3f 40 67 3a 50 12 4b ba 3f
       0.29509567696787065 0.10270800074286246
0000b0 f0 b9 7e d3 ff 00 aa bf 24 6a 30 0a ce 91 d6 3f
       -0.050788874213470225 0.352649221372902
0000c0 30 b1 62 37 8e 4e c1 bf d2 89 6d 10 96 75 df bf
       -0.13520982460375697 -0.49155189136777466
0000d0 d8 34 92 0e 54 68 b4 bf 02 8e 79 22 67 32 d6 3f
       -0.07971692424526411 0.3468263470333285
0000e0 ba 6e 5c f9 79 fc d8 bf c6 37 ac f9 32 a7 db bf
       -0.39040994025865994 -0.4320800245485511
0000f0 10 ed 19 96 7e b0 b9 3f c8 3f 72 a5 2e 91 de 3f
       0.10034934200841783 0.47761121899474945
000100 38 74 6f a3 06 6b c4 3f 34 01 54 f0 a4 7f cf bf
       0.15951617222063574 -0.24608289465687394
000110 b3 55 fc 23 69 cd d4 3f 31 43 b6 fb 1b de ce 3f
       0.3250372744963343 0.24115323820708448
000120 49 a6 7d 11 1d b3 d0 bf 08 c8 10 c3 be fb a6 3f
       -0.2609322233971381 0.04488941317721645
000130 6b 89 a3 de f7 ae d2 bf b0 9c b7 1c 0a 60 aa 3f
       -0.291929213925093 0.051513973241349986
000140 52 44 84 17 c2 83 d4 3f c5 a3 55 b9 38 bf c5 3f
       0.320541880574699 0.16989811944520575
000150 de 8d 78 88 99 ef ce 3f f7 34 77 3a 79 46 d1 bf
       0.2416870037423981 -0.26992636403595277
000160 65 94 17 bf c6 b0 d8 3f 19 89 ce cb 57 f9 d9 3f
       0.3857895723470562 0.4058436861324864
000170 88 f9 cc dc c3 1a d0 bf 74 58 52 d9 7b 5c d6 bf
       -0.25163361132208495 -0.34939476225679944
000180 ec d1 b3 6f e8 66 da 3f c6 58 ad 18 ef 71 d1 3f
       0.4125310030788387 0.27257897767902894
000190 60 2c fb 51 d5 3f d2 bf 52 78 eb e4 ce 01 db bf
       -0.28514607435199046 -0.4219853625817268
0001a0 98 c0 ac 10 8c f3 d5 3f 00 31 7e 83 62 bf d3 3f
       0.3429899370994547 0.3085562023268409
0001b0 58 ce 2b 4a 64 cb db bf 62 80 db b8 ce 51 d5 3f
       -0.4342890476538961 0.33311813404544044
0001c0 54 88 8a ba 2f a3 dd 3f ea eb bc f4 e5 24 d5 bf
       0.46308510987194507 -0.330377091409615
0001d0 98 7a 5f 3f 1a 3f d0 3f 72 89 37 ad cb bd db bf
       0.253851472747479 -0.4334592048236551
0001e0 76 9a 95 dd e2 f9 c1 3f 94 9a fd 5d 8e 66 ca 3f
       0.1404384214358349 0.2062547644556686
0001f0 a5 33 ce c7 e2 e4 dc 3f 5a 1c 07 1b c9 98 d3 3f
       0.45147008430722685 0.3062002910559777
000200 da d1 2d af 5a fc d3 bf 33 94 74 d7 ee 59 da bf
       -0.3122774801952609 -0.4117390731865413
000210 a7 5c 9e 4d 9f 46 b0 3f c7 4c 1a 0e 5e 23 d0 bf
       0.06357761044488318 -0.2521586549493801
000220 4c f0 2e ca 3e 8e bb bf ec b9 40 9a d4 14 de bf
       -0.10763924060933155 -0.4700213915229188
000230 0a 8b eb 2e 0a f3 de 3f 18 03 53 81 43 bc c4 3f
       0.48358397085228033 0.16199535193120407
000240 38 18 11 1e 0b d3 d7 3f c6 3d 24 1b 24 ba d7 3f
       0.37225606857498716 0.37073614740890226
000250 04 32 1f 3e 51 28 ba 3f 09 fc 1f a2 e8 b9 bb 3f
       0.10217769400259874 0.10830549200180441
000260 00 e1 2f b3 0a 10 d1 bf dd da 14 fe 6a 44 a7 3f
       -0.2666041135667143 0.045443862453273566
000270 b1 e9 47 22 06 ac b5 bf eb 2f 1c d7 b7 51 dc bf
       -0.0846561273282649 -0.4424876785931235
000280 bd 4a 2e 5d b0 18 df 3f d3 8b 5e 55 0a 15 dd bf
       0.48588189220133043 -0.4544092019734169
000290 0c e4 0c 91 81 63 d1 3f 78 b5 46 2e 35 99 c9 bf
       0.2716983715541239 -0.19998802909450908
0002a0 f0 3b 33 64 0d b3 bc 3f 72 d3 d7 01 1e 0f df bf
       0.11210712143223112 -0.4852976816176159
0002b0 0d c7 f8 e0 dc f9 de bf 5b 38 2c e2 99 b9 cb 3f
       -0.4840004155149565 0.21660159629431316
0002c0 73 6d c5 0d 5c b1 da 3f dc 12 de c9 38 05 cd 3f
       0.417075169990958 0.22672185761270824
0002d0 4c d2 7b 92 1c 02 d6 bf 70 cf c1 f0 ba b6 c1 3f
       -0.34387888245627063 0.1383889842578543
0002e0 6e 61 da bb b3 f7 c4 3f 88 ff 83 9b 3b c2 d3 3f
       0.16380926773559729 0.3087300318438726
0002f0 59 27 a5 d2 0a 2f d7 bf 6f b6 3f 13 6d ee b8 3f
       -0.36224623270810735 0.09738809318488405
000300 d5 92 32 04 5b ec e0 3f 67 e8 42 39 07 37 ce bf
       0.5288519937499482 -0.23605432792629985
000310 f2 c0 59 35 fb cc c0 bf c6 eb 44 58 04 0a c0 bf
       -0.1312555323124865 -0.12530569372196804
000320 92 c4 54 4f 90 33 d2 bf e0 e0 3f bb 8b 9d cf 3f
       -0.28439719912700767 0.24699541705172745
000330 fe 0b 8f d9 e7 26 6b 3f 93 5b d5 35 34 d4 c6 bf
       0.0033144501034896292 -0.17835095051370028
000340 da 90 ea 5b b6 50 c0 bf 65 50 92 fb c1 25 de bf
       -0.12746314514254814 -0.4710545498612702
000350 11 d4 48 7b ea c2 db bf e3 97 bb 5e d0 b3 dc 3f
       -0.43377172507763456 0.4484749722599856
000360 fd 21 36 45 b5 4c a7 bf 3e 08 7e 6b d3 4d d7 3f
       -0.04550711126200111 0.36412511346145837
000370 d1 99 af 68 f0 9b d8 3f 3c 52 1f 22 1d 6a c1 3f
       0.3845177671741143 0.13605083624010372
000380 b6 4e f7 83 a4 8e d6 bf f5 6e 8e 36 54 3d 98 bf
       -0.35245621573742925 -0.02367145140634271
000390 b9 76 1b d3 76 e8 df 3f 05 14 d8 cf fc 1f d0 3f
       0.4985634862513098 0.25195236489554446
0003a0 7b 26 dc 11 62 96 c8 bf 76 96 f2 21 02 0f d6 3f
       -0.19208932754581895 0.3446660357970822
0003b0 c3 49 46 b4 e9 c0 d6 bf d3 eb 7c c0 5d 74 df 3f
       -0.35552446942270083 0.4914774303212514
0003c0 19 8a 18 8e bf 73 c9 bf 00 fd 0b 74 da 7b d3 bf
       -0.19884485662721899 -0.3044344075460259
0003d0 d2 05 12 4b 0a 2d d3 3f c8 15 ae 36 2f dc aa bf
       0.29962403613180044 -0.05246112387161933
0003e0 22 6c 54 4a df 01 c4 bf 93 38 ec 3c 0c 5e b3 bf
       -0.15630713586219352 -0.07565380561229267
0003f0 1c 44 a9 2a 88 37 c3 3f 1b 59 de 8b cc e4 d4 3f
       0.15013219912592113 0.32646478327787215
000400 93 d7 36 61 3c 15 c9 3f 1a 4d 5a e4 b1 d1 dd 3f
       0.1959605669669001 0.46592376041481176
000410 3e d5 8e 2c 53 dc b0 3f ef ad 0a 02 82 d9 aa bf
       0.06586189115372051 -0.052440703152878736
000420 2a 63 7c 0e 23 b3 91 3f 67 fc d7 25 a7 c8 5c 3f
       0.017284915694378324 0.001756823759364834
000430 f7 64 59 2e 11 7f bf bf 74 c1 61 b4 88 3c d2 bf
       -0.12303264028141202 -0.2849447022954543
000440 23 81 12 61 54 87 b6 bf dc 37 10 e1 b8 1b db 3f
       -0.08800246591500076 0.42356702784388545
000450 5c 29 15 0b ad df d9 3f 38 f6 39 01 40 7b cf 3f
       0.4042770965794682 0.24594879207499942
000460 80 54 d9 46 10 a4 ca bf da ab 95 6a 52 05 d4 3f
       -0.20813182315274403 0.31282482536943024
000470 a9 93 86 b3 de 22 d7 bf 9a 87 6c 03 c5 a2 d3 bf
       -0.36150329143338894 -0.30680966696137946
000480 73 20 dc 39 b0 7a d6 3f a0 c3 53 48 75 7d ad 3f
       0.3512383046186251 0.05759779460812031
000490 5b 12 29 d6 28 37 b1 3f 0a 3e 85 4d 9d e1 92 3f
       0.06724791744734075 0.01843877587935875
0004a0 e6 77 90 e6 b9 db c7 3f 99 ea 8d a4 04 33 d8 3f
       0.18639301069282438 0.3781138998962575
0004b0 4f 7f 71 77 06 d2 d4 bf 41 e7 4c cf 28 94 a4 3f
       -0.32531892456426176 0.040192866616463714
0004c0 27 9a 0c b8 7b de c3 3f 9b 59 cf 3f 78 75 d9 3f
       0.1552271507909648 0.39779478293839937
0004d0 88 fa c9 8f 97 50 c8 3f 3f ff 8e 2a f5 40 c9 bf
       0.18995947380968325 -0.19729485109382414
0004e0 d3 54 70 f9 f1 6d 92 3f 01 3b 19 17 4f 1a c3 bf
       0.0179975327010496 -0.1492403853212281
0004f0 41 81 aa 8f 3b b8 d2 bf 2c 03 14 4b 9e df a2 bf
       -0.29249466924558837 -0.036862322487655724
000500 dd c4 ce 3c 44 2b d3 3f 4e d2 4c bf a6 db c4 bf
       0.2995157808137046 -0.1629532274324838
000510 c3 e8 91 fe ef c2 da 3f 20 14 ae e1 11 f2 d9 3f
       0.4181480394396539 0.4053997711092183
000520 9f 3c 3c f6 4d 3d d9 bf e4 9c cc d9 7c 8a b4 3f
       -0.3943667320863344 0.08023815457692113
000530 a9 ec 46 de 88 7d b6 3f 4b 92 a6 82 51 34 71 bf
       0.08785300661741026 -0.004200285339184771
000540 e6 67 63 74 f1 85 d8 bf 59 ee 3e 86 2a be c7 3f
       -0.3831752430538685 0.18549090914699454
000550 32 ba ef b0 a1 94 ce bf 5f 47 36 f8 8c 31 cf bf
       -0.2389108766505657 -0.2436996662113939
000560 9b 2b 76 23 0e 7d dd 3f 0a 45 45 f3 6a c5 cf bf
       0.4607577654175487 -0.24821221235701102
000570 c1 d8 d1 44 65 52 bb bf 72 d9 23 44 59 85 c8 3f
       -0.10672600679558554 0.19156947924757223
000580 2f f1 eb e8 1c 56 da bf 85 3a 9a 44 2b a4 cb 3f
       -0.4115059160829046 0.2159475407574584
000590 ad d9 32 a1 0e e7 d4 3f c8 42 b5 af 2f 17 d6 bf
       0.32660260908178423 -0.3451651779078415
0005a0 bd e1 62 1e e0 b7 e0 3f b4 ed 0f 4a 66 26 c7 bf
       0.5224457353097517 -0.18085936180419326
0005b0 d5 be f0 83 61 69 c7 3f ac 87 f0 1d 42 66 d2 bf
       0.18290347044375346 -0.2874913494471183
0005c0 eb 8b d9 b1 cb 88 b8 3f fd 3a 0e 7c 84 c1 c2 bf
       0.09583733646427077 -0.14653068597223032
0005d0 b1 95 28 f9 f4 de d8 3f 28 7f 24 c8 d2 92 cb 3f
       0.38860821086776826 0.21541819355570024
0005e0 9e 49 a4 45 ba c3 bb 3f 6d 00 76 f1 64 92 99 bf
       0.1084553165458488 -0.024972512471777387
0005f0 24 99 30 73 db 92 d8 bf 3b 85 ad 50 4a 93 c5 3f
       -0.38396345376021856 0.16855744304033657
000600 f5 b4 82 ff 46 da da bf 6f ad f8 53 d9 1e cf 3f
       -0.41957259132580244 0.24312893486181106
000610 54 ee cf e2 0d 1d c0 3f 24 26 f6 c1 d4 f0 cf bf
       0.12588666510406432 -0.24953708143975561
000620 00 f5 47 fe 6f fa c1 bf d9 94 f0 2d d0 fa d0 bf
       -0.1404552451712462 -0.26530842291169915
000630 d3 ca 33 f5 84 59 d0 bf 54 12 39 f3 fe 0b d6 bf
       -0.2554638285211414 -0.3444821715568527
000640 9b 15 09 31 96 58 e1 3f ea 65 c0 67 35 e3 d7 3f
       0.5420638044094405 0.3732427132796078
000650 a7 dc 0e fc f6 c8 b9 bf 92 8d 99 01 b2 5d cb bf
       -0.10072272924195379 -0.21379685476413762
000660 c0 94 1a 4b f0 ad db bf f6 ea 2f a6 66 a0 d0 3f
       -0.4324913724361288 0.25979009846893975
000670 cf 9f 36 11 8c 04 a2 bf 8a 5b 6a 98 10 91 d4 bf
       -0.03519094190715998 -0.32135405430147357
000680 53 85 76 6e 06 d5 cd 3f ea f5 f0 aa ef 7f a2 3f
       0.23306351083469198 0.036132325760700315
000690 a5 a0 01 ec 45 56 be bf f6 66 97 df 08 49 d2 3f
       -0.11850392352937662 0.2857076819906149
0006a0 d4 57 96 d9 0d 7a ba 3f 0f b3 9d 5d 7c 50 78 3f
       0.10342489778699299 0.005936132243601801
0006b0 2b 0b 41 57 cd 27 8d 3f c7 52 15 2c fa f1 c5 bf
       0.01423607275512991 -0.17144705917839628
0006c0 f0 45 65 b2 e0 a6 b1 3f 8d e5 85 ab d6 0d cf bf
       0.06895260196076669 -0.24260981917522564
0006d0 0c 3f b8 ed 3c 04 d2 bf 38 af bf 4b 76 c4 d4 3f
       -0.28150866713348033 0.32449109456387104
0006e0 5f da 8e 4a a2 05 c2 bf a0 bd bf 59 d7 47 d4 3f
       -0.1407969345143156 0.31688483967351466
0006f0 2f 25 a3 11 57 c3 c2 bf e1 86 67 75 28 1f ba bf
       -0.14658630715556728 -0.10203793398207096
000700 9c 74 a6 0c d6 48 c6 bf 5b a2 51 49 03 4a d6 3f
       -0.17409778230368012 0.34826738510176874
000710 3b a1 5a 5f 53 df da 3f 02 50 fb aa ec 83 d2 3f
       0.41988071739116933 0.2893020314925253
000720 48 c8 73 32 71 80 ce bf ab 5d ee 7b 10 08 cd 3f
       -0.23829474414339047 0.22680860568355618
000730 25 a6 26 07 aa cc c6 3f 12 a7 92 41 6a 55 db bf
       0.17812085484665477 -0.42708832172012123
000740 ba dc bc 32 99 a1 d1 bf 27 2e 46 52 66 bf d5 3f
       -0.275488185452058 0.33980711016258386
000750 a2 3a d0 92 61 5f d5 bf 72 9a c1 0e da 50 d2 bf
       -0.33394660317655156 -0.2861848014930849
000760 f2 6e 10 41 f1 c4 d3 3f cc 33 cc 73 d3 bd c6 3f
       0.3088954100983151 0.17766802934821013
000770 6c a6 b8 d6 b4 51 d8 3f ff b1 bd 7c 09 fe d6 bf
       0.37998696297527235 -0.35925519162881864
000780 5e 22 fb 2f 61 9c b0 3f df f6 b2 f5 6b 93 bd 3f
       0.06488616391573873 0.11553072689545328
000790 49 38 01 8e b0 20 a8 bf 32 f7 1f bb 47 1b c5 3f
       -0.047124402365270664 0.16489502560573893
0007a0 b7 14 7c 76 8e a2 c5 bf bd 61 ff 40 82 74 c6 bf
       -0.1690233305491 -0.17543056653700076
0007b0 b2 5b 45 12 3b 24 c5 3f 46 ea 7d 39 f5 fa c8 3f
       0.16516817466864847 0.1951586275789216
0007c0 2c 31 02 33 4b dd db bf b9 14 55 3d 4d a3 d6 3f
       -0.43538169843010865 0.35371714581954056
0007d0 c0 92 1b 86 7e 62 8f bf 45 f8 bd d6 0b 4a d8 3f
       -0.015324581592218833 0.3795194241610072
0007e0 28 45 d5 81 37 43 da 3f eb e9 cd 96 15 b4 d4 bf
       0.41035258940708497 -0.32349147536265715
0007f0 9c a4 75 f4 af 11 de 3f 97 0d dd ad ee 61 d5 3f
       0.46982954857828374 0.334102315701068
