data/w2.npy (npy, 928 bytes, 1 tensors)

array f8 [10, 10]
00000000: b176 5d75 719c ebbf 9581 df88 4877 c33f
00000010: 611c 58ba ca0d c13f bc13 eeec 18fe b03f
00000020: 6fcf 2efd 56c6 d93f ed8d 1cd7 7c0a cebf
00000030: 486c 124c 2d2b dd3f 8841 6ec0 62a4 d0bf
00000040: 70e6 ccd9 656b e0bf ae37 ca05 882a d2bf
00000050: ea90 27d7 3661 e83f 2987 7be4 90bb c33f
00000060: 4bce 8943 3fe0 d33f cf71 7c12 b18c e73f
00000070: 2aff 7ef4 dffc eebf 01f3 98c3 5460 df3f
00000080: 1c5a 5335 6b40 dcbf 36c3 4562 6507 e03f
00000090: 835f 0cda 79e3 cdbf f4dd e769 958c d3bf
000000a0: 03b1 49e0 6a8d d4bf b777 14be 6ad7 de3f
000000b0: eb55 4670 b23b cfbf e545 76c2 76c1 d43f
000000c0: 135a 010e eac1 dabf 1710 e1c2 cbd2 d73f
000000d0: bcf9 2220 a963 c43f ac72 052b cb3d db3f
000000e0: bc1f ee44 9ed2 d2bf 246e 266d e113 e33f
000000f0: 1c2b 5b28 6c64 e53f 4ba1 03db 37a9 b73f
00000100: 04e5 2167 f014 d9bf 1e66 234e a5e9 d03f
00000110: 0e03 ed51 f904 be3f 78f9 4f88 b7f3 c03f
00000120: 06d1 992d bcfa cabf 2562 9d2b 4b2f a7bf
00000130: 91d0 14f4 28ac e0bf 3d5f 5e97 9d58 d43f
00000140: 2ab7 0448 b1ce c13f 156f 13b2 47b2 d5bf
00000150: 7a9c afdb d4c2 c23f 4a24 1a3b 2260 ddbf
00000160: ab78 fec9 3509 92bf cba5 4309 a69a ebbf
00000170: dd44 9ebf 4c28 e6bf 4899 990c 1074 e53f
00000180: f51b 3b68 5e1f eb3f 163c 9231 0ad5 c43f
00000190: 93bd be4d d205 d33f 5203 136e 8b8d db3f
000001a0: 0b78 e53f 51ac e13f 40be 1465 04fd d3bf
000001b0: 502d 1e6c 5cfd d13f 1d38 8b5a f359 e8bf
000001c0: b607 f894 219f b53f 968e 977d ef50 c9bf
000001d0: 2be2 7b2e 65c7 b3bf 5e0a 3241 a4e0 c8bf
000001e0: bde0 fe90 4440 ccbf f996 a3ec 17a0 cdbf
000001f0: 0f70 5af2 02d9 dfbf e592 ea71 36f9 a63f
00000200: cffa 82f4 01cc e6bf c6a4 d278 96c3 d6bf
00000210: 376f 67da 9919 e23f 4ce7 0d0a 0a62 d7bf
00000220: 7523 605a 6902 df3f 4f3d 6b9a 8a6e b33f
00000230: d404 7e89 0f49 c8bf 27f2 9d76 011a e6bf
00000240: 5b90 aab8 8932 ea3f 011a 0bd4 c348 ea3f
00000250: de6a 11a5 8f19 dc3f 5c2c f385 e476 d53f
00000260: ba16 91b5 dc35 ddbf 82bb 2d4c 4e96 c0bf
00000270: 718e 3054 e6e6 d9bf d108 b922 6613 c43f
00000280: c867 575e 1d77 be3f 2827 5f14 35cf e13f
00000290: 8594 16e5 fdc1 c6bf b464 2531 4460 c6bf
000002a0: b5ff 6885 79ad 9c3f 264a dccf ec84 c53f
000002b0: 5bc8 4eec 96c9 d1bf c887 c44f b313 c93f
000002c0: 8c4d e981 03c5 cc3f ab99 b61d 3bef dabf
000002d0: a9bd 188a bcd0 cd3f 5234 5287 6497 eabf
000002e0: 9f87 3b29 0b2e be3f 49ac 751c 3347 e2bf
000002f0: 2734 2d6f 422b db3f 0ff6 2ce0 252c c63f
00000300: 48e3 b94b 2e5e e0bf 1de6 58a0 d45f d53f
00000310: acd1 0bc4 96ab d63f b661 1c89 cde5 d6bf
-0.8628470699583969 0.1520777386022131 0.1332333955653864 0.06637721809791136 0.40273070073020895 -0.23469505790227121 0.45576031140234763 -0.2600333098607952
-0.5131100896753207 -0.28384590688153366 0.7618669702756311 0.15416155964253989 0.3105619582704306 0.735924278360068 -0.9683685088457186 0.49025458432497265
-0.4414318104512931 0.5009028357872924 -0.2335045160950778 -0.3054555448756837 -0.3211314382849794 0.48189800798888477 -0.24400930864491896 0.3243080996554382
-0.4180855881471938 0.372240963279411 0.15929140156909039 0.4256465835694978 -0.29410511714422305 0.5961768276060337 0.6685086048322293 0.09242581460023762
-0.39190301963351737 0.264260603243743 0.1172633957876423 0.1324376502597706 -0.21077682711223406 -0.04528269679457634 -0.5210156218731915 0.31790866643995114
0.1391202546741906 -0.33900635137773466 0.14657078482489166 -0.4589925362748245 -0.01761325879453383 -0.8626280003492693 -0.6924194090408055 0.6704178091138511
0.8475791965255427 0.16275145931692298 0.29723031608860956 0.4305141997283971 0.552284836576065 -0.31231794234460963 0.2810889297331487 -0.7609802978929597
0.08445939909873243 -0.19778245575354408 -0.07726127991544078 -0.19435551818249314 -0.220711298750535 -0.23144816450729147 -0.4976203314524818 0.04487009182529337
-0.7124032760255775 -0.3556877307806413 0.5656251207069322 -0.3653588388620974 0.4845221884320872 0.07590547819130687 -0.1897296353672916 -0.6906745259034935
0.8186691862833969 0.8213824407073959 0.43906012649465065 0.3353816326240968 -0.45641248446586824 -0.12958697051677964 -0.4047180006184368 0.15684200950096863
0.11900504639871123 0.5565438650021166 -0.1777951592058892 -0.17481281661711068 0.028005503432950458 0.16811905049742498 -0.2779290492718524 0.195913709591933
0.22476238101317525 -0.42085149671256755 0.23293263190269656 -0.830980552958531 0.11789006954816593 -0.5711913638928162 0.42451535088622666 0.17322228857112562
-0.5114966849351754 0.3339740339175437 0.35422295708783724 -0.3577760542844105
