data/w2.npy (npy, 928 bytes, 1 tensors)

array f8 [10, 10]
00000000: 065c 74b6 4943 e83f e278 14f0 3964 a83f
00000010: ea66 8501 ba6a d33f 08d6 5e84 04d0 dfbf
00000020: 7697 a2e5 c0ac e03f 3e47 3263 5487 babf
00000030: 335d 9060 8b6b dfbf 1c15 c8b4 04de a93f
00000040: b1c5 20da 51c4 a63f 3d0a a486 34a1 de3f
00000050: aef8 835d 2122 f0bf 33d8 8ec9 d63c e33f
00000060: c46a f96c cb52 a2bf 766f 30ff af28 90bf
00000070: 3258 255c a82d d3bf ac7f 7be8 d0e3 ec3f
00000080: 0fc6 2ecb 20d2 dd3f a5e4 b211 64b8 e8bf
00000090: 9285 0a70 830f d6bf 25b3 a6e9 5316 d6bf
000000a0: 8163 9deb 28ab d63f accc 3a67 5195 b0bf
000000b0: 288a 06a0 87fd c93f f5a0 7f37 ba9d aabf
000000c0: 9566 b8bc 3b91 b5bf 8db8 b602 860a d83f
000000d0: cd0f 6fbf 157d b5bf 57a8 581c 4239 e3bf
000000e0: d80b dc5c 9e6e e63f 28c9 637e 9acf b1bf
000000f0: b380 f2d4 20a8 ad3f fe59 fa6f 6e07 c03f
00000100: 5038 ed38 bbdc c9bf 13a1 c89b 2102 cb3f
00000110: 9ef5 b97f e0d2 d4bf 1143 0357 2492 d73f
00000120: 5169 bb0b cf7b d63f c883 8c7f f1aa debf
00000130: e31a 6a37 4401 c53f daeb e629 456f e63f
00000140: 90f5 8752 fab7 e6bf 0f83 dee4 f112 dbbf
00000150: 1c9f 062b e9c9 e4bf d285 44b1 151f cebf
00000160: 441a 1421 af75 d43f f338 47d2 a9f4 cfbf
00000170: 12a1 9020 548b ad3f cd08 d0b0 b58f f23f
00000180: 9211 f327 f307 c2bf 61fc f92d da7c e3bf
00000190: 6a69 10e1 df04 babf c5cd 83e3 d760 e43f
000001a0: ae2d 57b2 7381 e23f 9ccd 2f32 e198 d4bf
000001b0: 0455 ef91 77cb d43f 786a 5145 75ee da3f
000001c0: 3bde db17 1e19 d0bf 5339 5f86 c598 cb3f
000001d0: ddfe 2f55 0992 dbbf e40e 8ff9 c08f d83f
000001e0: 01f3 ba15 4c6e debf 0c6f 6afc a408 c03f
000001f0: e9ba d417 fa75 c83f 2033 b8e7 15e6 d8bf
00000200: f3ca 908b 7781 e33f 52a1 fbaf c22f d23f
00000210: 8626 9f4d 50ee ecbf d0b5 1e8f 278e d63f
00000220: 9719 289e 272f dd3f d21a 80cd 857b aabf
00000230: f3d7 6543 2c14 ccbf b1c9 4dd9 8546 d23f
00000240: b0c0 3c5b 5aaa c83f ed2e ac5a 2454 d23f
00000250: 34cf 03b9 1d1e e33f 678c cf94 f4f2 e1bf
00000260: 5948 37d7 e621 e93f 7425 0f97 11a7 d0bf
00000270: f405 8877 e42b cd3f 1428 373a 2d05 d03f
00000280: 270a aa27 3a90 cdbf 0a96 9489 52ef ccbf
00000290: 2d8a 407d f19a d03f dcde 86a3 4d8e 88bf
000002a0: 4956 a8f1 2df7 b5bf ea52 dfd2 e856 e23f
000002b0: a172 922f 5fb3 c73f 483c 6971 1d49 c63f
000002c0: df38 1978 e2d6 b9bf 8ff2 be5a 9759 d4bf
000002d0: 41ad c2d2 448b d2bf 4f6c 37ea b92d ddbf
000002e0: c3f9 57eb 4ed9 b7bf ea87 402b ae59 d2bf
000002f0: 884e 5227 6a5e c2bf 6879 8a87 2718 d7bf
00000300: cd8a 0938 69fc e73f 2c46 29d9 6477 db3f
00000310: 4154 3e7a 989d b9bf 14ee ecce 6166 c7bf
0.7582138598980925 0.047639666134488015 0.30338907383484914 -0.49707138945390783 0.5210880742131241 -0.10362746640956019 -0.49093899183340567 0.05052199084097195
0.04446655070968165 0.4785891833163623 -1.0083326008748759 0.6011766373328612 -0.035787922909283704 -0.01578021044780039 -0.2996617221700745 0.9028095760986523
0.4659502014356755 -0.7725086541824068 -0.3446968645240186 -0.3451127797841756 0.3541967678952958 -0.06477841158157344 0.20304961503741592 -0.05198461463425189
-0.08424733502797672 0.3756423021794795 -0.08393989490201577 -0.6007395318640744 0.7010032476103971 -0.06957402787864864 0.05792334174589211 0.12522678821251526
-0.2020486858331787 0.2110025416052471 -0.32537090752870224 0.36829479691827866 0.351306687790971 -0.4791835542292202 0.16410114961418917 0.7010827845000407
-0.7099582302031866 -0.42303130484110424 -0.6496473160122807 -0.23532363086364555 0.31968286733937057 -0.2496540333508573 0.05770361802598435 1.1600853831046607
-0.14086760950716531 -0.6089907548884065 -0.10163687939385616 0.6368216937684613 0.5783022387708365 -0.32183103467033347 0.3249186444421215 0.4208043267187018
-0.2515330536839177 0.2155997186768653 -0.4307883579167376 0.38377403613070116 -0.47548200723740314 0.12526380848873264 0.19110037006017613 -0.3890433085332905
0.609554073895508 0.28416506944497144 -0.9040910259293049 0.3524264238029362 0.45600309796318456 -0.05172365315961759 -0.21936562815579883 0.2855543729885098
0.1926987596029952 0.2863856206392786 0.5974262822696574 -0.5609076410731973 0.7853883937298277 -0.2601970648944054 0.22790199123851063 0.2503159588346773
-0.23096396385888449 -0.22605354039949105 0.25945698959017954 -0.011990171959822708 -0.08580290937273917 0.5731090658760796 0.18516149351934977 0.17410629308366965
-0.10093512947171089 -0.317968214625389 -0.28975029546809955 -0.45591590759949424 -0.09315961118406961 -0.2867236540206465 -0.14350630683894772 -0.3608492683068989
0.7495618910291683 0.4291622276988132 -0.10006096825084489 -0.18281195262703476
