data/w2.npy (npy, 928 bytes, 1 tensors)

array f8 [10, 10]
0	0xbfa4135eac626d1e	-0.03921027998259262
1	0x3fb02513657e3a1f	0.06306573131426106
2	0xbfde18f549001140	-0.47027332428867297
3	0x3fdc7bfe497ad7c1	0.4450679509712892
4	0x3fe49a6df7018966	0.6438512634597771
5	0xbfe84e3656e99942	-0.7595473954686798
6	0x3f97697375255f22	0.022863201165221565
7	0xbfcc331ef3112690	-0.22031008594995116
8	0x3fe078ea0c1c73d2	0.51476003995378
9	0xbfcb860e51be3d5d	-0.21502856246341198
10	0xbfdab67269f4b517	-0.4173856768346282
11	0xbfd3d0f565843ca0	-0.30962881959653465
12	0x3fd04f6eea59589e	0.25484822164197307
13	0xbfbd05e4245d0445	-0.11337114227082264
14	0x3fcd62ace4b481f2	0.22957383315316765
15	0x3fe551ee47bb7d36	0.6662513161681207
16	0xbfdfe565b0bfd3a0	-0.4983762956683737
17	0xbfe173fc49127c19	-0.5454083850089574
18	0xbfd1407d6a0a1c12	-0.2695611510793593
19	0x3fe9296345080ac0	0.7863022182721906
20	0xbf512e96d55bf6fa	-0.0010487053854712478
21	0x3fd83eeaeaab15c8	0.37884018818689613
22	0xbfeaea2e236d989f	-0.8410864536242747
23	0xbfc30703acd4a0fe	-0.14865156115525474
24	0xbfd3bf6e8fa650f2	-0.3085590746716341
25	0x3fce876f1d34ac8b	0.2385081188780059
26	0x3fd94145c32498d6	0.3946089177792492
27	0x3fe3ee62b5c7847e	0.6228498030069571
28	0x3fe1ce9983bb3aa8	0.5564696858289908
29	0x3fcce0cca204c60c	0.22561033164088007
30	0x3fb31dbc782c6e30	0.07467248853611674
31	0xbfd7ac5a64749f6d	-0.3698945981036477
32	0x3fb500fb7c8f7847	0.08204623976732349
33	0x3fc63d6e9e38b68e	0.17374975896511952
34	0xbfb38e775c3c741d	-0.07639261247500469
35	0x3fed8e83f2dc4dd4	0.9236469024057734
36	0x3fe7c60ec98cd853	0.7429269730116722
37	0xbfbd6a8dcf0f4823	-0.11490713410538027
38	0x3fd8ecb528819926	0.389447488362196
39	0xbfeb15eb37f733f5	-0.8464256375387992
40	0x3fcd25c166c55d85	0.22771470563996501
41	0x3fcc97068ce8af73	0.2233589351684447
42	0x3fcef97a0490278d	0.24198842261131084
43	0x3fa57ab7f912792b	0.04195189395362527
44	0xbfadab16870a20ac	-0.057945922836610236
45	0xbfbb7f6ee1ea1c5e	-0.10741322532168016
46	0xbfa0b4cddac243d9	-0.032629425958596144
47	0x3fe1f4a3a0b675a7	0.5611131800575792
48	0xbfed17829c40c34f	-0.909119897061922
49	0xbfc61cfa3b83b580	-0.1727593222234809
50	0xbfdb4c81d1813e57	-0.42654462298830736
51	0xbfb899d6bd59c570	-0.09609739420718255
52	0x3fd6908fcb8da3f8	0.3525733459305793
53	0x3ff1efaaf795196e	1.1210126563251737
54	0x3fce709d92cb9bc6	0.2378117529653691
55	0xbfb3b262c8cab8ac	-0.07694070245881574
56	0x3fd0af13620d3dc7	0.2606857736145369
57	0x3fcc64ecd7f7053a	0.22182999177133828
58	0x3fdf61ed34b0cc66	0.4903519644314599
59	0xbfb557afcee86141	-0.08336924363573407
60	0xbfe06168463610d8	-0.511890542155494
61	0x3feb20e229e99aa5	0.8477640932658984
62	0x3fbd73bfd226fd7c	0.11504744415923612
63	0xbfe09f5bc9891c60	-0.5194529472581841
64	0x3fcff3a3a13286c0	0.24962277766194596
65	0xbf9ea62f63ca042a	-0.029930820909161472
66	0x3fc21405daea9fed	0.14123604954988825
67	0xbfe2881c89d565e3	-0.5791151706754899
68	0xbfe7ea87506a245d	-0.7473789759252544
69	0xbfd53914b11a3d41	-0.33160893721738566
70	0x3ff03f727bfeb67b	1.0154900401643363
71	0xbfece0bb6f08358a	-0.9024331253619249
72	0xbfd79b6fa84d6541	-0.3688620704247861
73	0x3fd73ecb842ebc7f	0.3632077017636632
74	0x3fdd68f77dee52e7	0.459531662921377
75	0x3fdf69a8b4d92166	0.4908239141555185
76	0xbfd493bdd61d601c	-0.32151742849009834
77	0xbfd797105fadb4b2	-0.3685952123985984
78	0xbfd92b2dfbeebd62	-0.39326047518530605
79	0x3fd5db106c793ee2	0.34149561493994274
80	0xbfb7c2fc57cac4fb	-0.09281899588929214
81	0x3fd90cb8029ccd1a	0.3914012933266392
82	0x3fdd32f6bc22a02f	0.45623558399757064
83	0x3fc847da430d5133	0.18969276689552714
84	0xbfe9b9f9bcabfd83	-0.8039520916935746
85	0xbfb83ee490bc7ed6	-0.09470966847993209
86	0xbfcbca9977b0b9b1	-0.217120345537706
87	0xbfed6aa9d0f86456	-0.9192704278422166
88	0x3fd0f824f6091d37	0.265145530957358
89	0xbfd1cb22018c3cc3	-0.27802324439194254
90	0x3fe66aa04a0124a9	0.7005158849143714
91	0xbfccee8fee91ae28	-0.22603034161453306
92	0x3fda54988ee7aabb	0.41141332583962836
93	0xbfe02e6a67cf7b56	-0.5056659724758485
94	0xbfc2e5de2dd6f27c	-0.1476400111986499
95	0xbfc99ae3ef55c63b	-0.2000393789890483
96	0x3fd8a31e6b311508	0.38495598285619836
97	0xbfd98d60dd23d55a	-0.3992540511674939
98	0xbfd9d0df9d7ceee6	-0.4033736265152882
99	0x3f6e8af660c946dc	0.0037283718177513036
